…
sample: (38, 64, 64, 3) (38,) tf.Tensor(0.0, shape=(), dtype=float32) tf.Tensor(1.0, shape=(), dtype=float32)
Model: "resnet18"
__________________________________________________________________________________________________
Layer (type)                    Output Shape         Param #     Connected to                     
==================================================================================================
input_1 (InputLayer)            [(None, 64, 64, 3)]  0                                            
__________________________________________________________________________________________________
conv2d (Conv2D)                 (None, 62, 62, 64)   1792        input_1[0][0]                    
__________________________________________________________________________________________________
batch_normalization (BatchNorma (None, 62, 62, 64)   256         conv2d[0][0]                     
__________________________________________________________________________________________________
re_lu (ReLU)                    (None, 62, 62, 64)   0           batch_normalization[0][0]        
__________________________________________________________________________________________________
max_pooling2d (MaxPooling2D)    (None, 62, 62, 64)   0           re_lu[0][0]                      
__________________________________________________________________________________________________
conv2d_1 (Conv2D)               (None, 62, 62, 64)   36928       max_pooling2d[0][0]              
__________________________________________________________________________________________________
batch_normalization_1 (BatchNor (None, 62, 62, 64)   256         conv2d_1[0][0]                   
__________________________________________________________________________________________________
activation (Activation)         (None, 62, 62, 64)   0           batch_normalization_1[0][0]      
__________________________________________________________________________________________________
conv2d_2 (Conv2D)               (None, 62, 62, 64)   36928       activation[0][0]                 
__________________________________________________________________________________________________
batch_normalization_2 (BatchNor (None, 62, 62, 64)   256         conv2d_2[0][0]                   
__________________________________________________________________________________________________
add (Add)                       (None, 62, 62, 64)   0           batch_normalization_2[0][0]      
                                                                 max_pooling2d[0][0]              
__________________________________________________________________________________________________
activation_1 (Activation)       (None, 62, 62, 64)   0           add[0][0]                        
__________________________________________________________________________________________________
conv2d_3 (Conv2D)               (None, 62, 62, 64)   36928       activation_1[0][0]               
__________________________________________________________________________________________________
batch_normalization_3 (BatchNor (None, 62, 62, 64)   256         conv2d_3[0][0]                   
__________________________________________________________________________________________________
activation_2 (Activation)       (None, 62, 62, 64)   0           batch_normalization_3[0][0]      
__________________________________________________________________________________________________
conv2d_4 (Conv2D)               (None, 62, 62, 64)   36928       activation_2[0][0]               
__________________________________________________________________________________________________
batch_normalization_4 (BatchNor (None, 62, 62, 64)   256         conv2d_4[0][0]                   
__________________________________________________________________________________________________
add_1 (Add)                     (None, 62, 62, 64)   0           batch_normalization_4[0][0]      
                                                                 activation_1[0][0]               
__________________________________________________________________________________________________
activation_3 (Activation)       (None, 62, 62, 64)   0           add_1[0][0]                      
__________________________________________________________________________________________________
conv2d_5 (Conv2D)               (None, 31, 31, 128)  73856       activation_3[0][0]               
__________________________________________________________________________________________________
batch_normalization_5 (BatchNor (None, 31, 31, 128)  512         conv2d_5[0][0]                   
__________________________________________________________________________________________________
activation_4 (Activation)       (None, 31, 31, 128)  0           batch_normalization_5[0][0]      
__________________________________________________________________________________________________
conv2d_6 (Conv2D)               (None, 31, 31, 128)  147584      activation_4[0][0]               
__________________________________________________________________________________________________
batch_normalization_6 (BatchNor (None, 31, 31, 128)  512         conv2d_6[0][0]                   
__________________________________________________________________________________________________
conv2d_7 (Conv2D)               (None, 31, 31, 128)  8320        activation_3[0][0]               
__________________________________________________________________________________________________
add_2 (Add)                     (None, 31, 31, 128)  0           batch_normalization_6[0][0]      
                                                                 conv2d_7[0][0]                   
__________________________________________________________________________________________________
activation_5 (Activation)       (None, 31, 31, 128)  0           add_2[0][0]                      
__________________________________________________________________________________________________
conv2d_8 (Conv2D)               (None, 31, 31, 128)  147584      activation_5[0][0]               
__________________________________________________________________________________________________
batch_normalization_7 (BatchNor (None, 31, 31, 128)  512         conv2d_8[0][0]                   
__________________________________________________________________________________________________
activation_6 (Activation)       (None, 31, 31, 128)  0           batch_normalization_7[0][0]      
__________________________________________________________________________________________________
conv2d_9 (Conv2D)               (None, 31, 31, 128)  147584      activation_6[0][0]               
__________________________________________________________________________________________________
batch_normalization_8 (BatchNor (None, 31, 31, 128)  512         conv2d_9[0][0]                   
__________________________________________________________________________________________________
add_3 (Add)                     (None, 31, 31, 128)  0           batch_normalization_8[0][0]      
                                                                 activation_5[0][0]               
__________________________________________________________________________________________________
activation_7 (Activation)       (None, 31, 31, 128)  0           add_3[0][0]                      
__________________________________________________________________________________________________
conv2d_10 (Conv2D)              (None, 16, 16, 256)  295168      activation_7[0][0]               
__________________________________________________________________________________________________
batch_normalization_9 (BatchNor (None, 16, 16, 256)  1024        conv2d_10[0][0]                  
__________________________________________________________________________________________________
activation_8 (Activation)       (None, 16, 16, 256)  0           batch_normalization_9[0][0]      
__________________________________________________________________________________________________
conv2d_11 (Conv2D)              (None, 16, 16, 256)  590080      activation_8[0][0]               
__________________________________________________________________________________________________
batch_normalization_10 (BatchNo (None, 16, 16, 256)  1024        conv2d_11[0][0]                  
__________________________________________________________________________________________________
conv2d_12 (Conv2D)              (None, 16, 16, 256)  33024       activation_7[0][0]               
__________________________________________________________________________________________________
add_4 (Add)                     (None, 16, 16, 256)  0           batch_normalization_10[0][0]     
                                                                 conv2d_12[0][0]                  
__________________________________________________________________________________________________
activation_9 (Activation)       (None, 16, 16, 256)  0           add_4[0][0]                      
__________________________________________________________________________________________________
conv2d_13 (Conv2D)              (None, 16, 16, 256)  590080      activation_9[0][0]               
__________________________________________________________________________________________________
batch_normalization_11 (BatchNo (None, 16, 16, 256)  1024        conv2d_13[0][0]                  
__________________________________________________________________________________________________
activation_10 (Activation)      (None, 16, 16, 256)  0           batch_normalization_11[0][0]     
__________________________________________________________________________________________________
conv2d_14 (Conv2D)              (None, 16, 16, 256)  590080      activation_10[0][0]              
__________________________________________________________________________________________________
batch_normalization_12 (BatchNo (None, 16, 16, 256)  1024        conv2d_14[0][0]                  
__________________________________________________________________________________________________
add_5 (Add)                     (None, 16, 16, 256)  0           batch_normalization_12[0][0]     
                                                                 activation_9[0][0]               
__________________________________________________________________________________________________
activation_11 (Activation)      (None, 16, 16, 256)  0           add_5[0][0]                      
__________________________________________________________________________________________________
conv2d_15 (Conv2D)              (None, 8, 8, 512)    1180160     activation_11[0][0]              
__________________________________________________________________________________________________
batch_normalization_13 (BatchNo (None, 8, 8, 512)    2048        conv2d_15[0][0]                  
__________________________________________________________________________________________________
activation_12 (Activation)      (None, 8, 8, 512)    0           batch_normalization_13[0][0]     
__________________________________________________________________________________________________
conv2d_16 (Conv2D)              (None, 8, 8, 512)    2359808     activation_12[0][0]              
__________________________________________________________________________________________________
batch_normalization_14 (BatchNo (None, 8, 8, 512)    2048        conv2d_16[0][0]                  
__________________________________________________________________________________________________
conv2d_17 (Conv2D)              (None, 8, 8, 512)    131584      activation_11[0][0]              
__________________________________________________________________________________________________
add_6 (Add)                     (None, 8, 8, 512)    0           batch_normalization_14[0][0]     
                                                                 conv2d_17[0][0]                  
__________________________________________________________________________________________________
activation_13 (Activation)      (None, 8, 8, 512)    0           add_6[0][0]                      
__________________________________________________________________________________________________
conv2d_18 (Conv2D)              (None, 8, 8, 512)    2359808     activation_13[0][0]              
__________________________________________________________________________________________________
batch_normalization_15 (BatchNo (None, 8, 8, 512)    2048        conv2d_18[0][0]                  
__________________________________________________________________________________________________
activation_14 (Activation)      (None, 8, 8, 512)    0           batch_normalization_15[0][0]     
__________________________________________________________________________________________________
conv2d_19 (Conv2D)              (None, 8, 8, 512)    2359808     activation_14[0][0]              
__________________________________________________________________________________________________
batch_normalization_16 (BatchNo (None, 8, 8, 512)    2048        conv2d_19[0][0]                  
__________________________________________________________________________________________________
add_7 (Add)                     (None, 8, 8, 512)    0           batch_normalization_16[0][0]     
                                                                 activation_13[0][0]              
__________________________________________________________________________________________________
activation_15 (Activation)      (None, 8, 8, 512)    0           add_7[0][0]                      
__________________________________________________________________________________________________
global_average_pooling2d (Globa (None, 512)          0           activation_15[0][0]              
__________________________________________________________________________________________________
dense (Dense)                   (None, 128)          65664       global_average_pooling2d[0][0]   
__________________________________________________________________________________________________
activation_16 (Activation)      (None, 128)          0           dense[0][0]                      
__________________________________________________________________________________________________
dense_1 (Dense)                 (None, 15)           1935        activation_16[0][0]              
==================================================================================================
Total params: 11,247,247
Trainable params: 11,239,439
Non-trainable params: 7,808
__________________________________________________________________________________________________
100%|██████████| 758/758 [09:31<00:00,  1.33it/s]
0 loss: 1.68966543674469
0 acc: 0.5483333333333333
…
